# Parameters
nc: 20  # number of classes
depth_multiple: 1.0  # model depth multiple
width_multiple: 0.2  # layer channel multiple
anchors:
  - [10,13, 16,30, 33,23]  # P3/8
#   - [30,61, 62,45, 59,119]  # P4/16
#   - [116,90, 156,198, 373,326]  # P5/32

weight_bit_width: 8
act_bit_width: 8

# YOLOv3-tiny backbone
backbone:
  # [from, number, module, args]
  [[-1, 1, Conv, [16, 3, 1]],  # 0
   [-1, 1, nn.MaxPool2d, [2, 2, 0]],  # 1-P1/2
   [-1, 1, Conv, [32, 3, 1]],
   [-1, 1, nn.MaxPool2d, [2, 2, 0]],  # 3-P2/4
   [-1, 1, Conv, [64, 3, 1]],
   [-1, 1, nn.MaxPool2d, [2, 2, 0]],  # 5-P3/8
   [-1, 1, Conv, [128, 3, 1]],
   [-1, 1, nn.MaxPool2d, [2, 2, 0]],  # 7-P4/16
   [-1, 1, Conv, [256, 3, 1]],
   [-1, 1, nn.MaxPool2d, [2, 2, 0]],  # 9-P5/32
   [-1, 1, Conv, [512, 3, 1]],  # 10
  ]

# YOLOv3-tiny head
head:
  [[-1, 1, Conv, [1024, 3, 1]],
   [-1, 1, Conv, [256, 1, 1]],
   [-1, 1, Conv, [512, 3, 1]],  # 13 (P5/32-large)
   [-1, 1, SimpleConv, [(nc+5)*3, 3, 1]], # 14
   
   [[14], 1, Detect, [nc, anchors, False]],  # Detect(P4, P5)
  ]